model.onnx (onnx, 5056 bytes, 4 tensors)

sequential/dense_1/MatMul/ReadVariableOp:0 f4 [64, 2]
-0.1246004 0.37917337 -0.014599076 -0.2861387 0.1815071 0.14050479 -0.115608394 0.30418918
0.014330222 0.10998714 0.023836555 -0.26230443 -0.06784826 -0.2066882 -0.095178105 0.11170072
0.008679848 0.48810264 0.10768233 0.420494 0.08880485 -0.30144218 -0.16210288 -0.2951311
0.06004466 -0.24648394 -0.21779844 0.09497332 -0.012998961 -0.31869328 -0.09513857 -0.37852493
-0.11020638 -0.2566356 -0.17690426 0.15041366 -0.16379692 -0.4317769 -0.04187761 0.2268144
-0.0025185666 0.06285922 0.111551926 -0.23607442 0.17593093 -0.2738387 -0.24417077 0.27265117
-0.03257662 -0.28331652 -0.1001109 -0.36572835 0.15983418 0.1396229 0.1501187 0.4166825
0.0430843 -0.18002568 -0.11939289 -0.4356247 -0.091822624 0.5050485 0.20250063 -0.08166677
-0.10135763 -0.25260043 -0.05744093 0.015540234 -0.07142154 0.19679141 -0.023318276 -0.2799851
-0.031054985 0.17141217 0.14168201 -0.5099556 -0.029238276 -0.42065823 -0.04391223 -0.071475774
0.07452637 -0.21087578 0.089529306 0.27232036 0.1973334 0.07435667 -0.0028805323 -0.42901555
-0.07197939 0.27601025 0.016200365 -0.20970367 -0.14970648 0.053942647 -0.055835288 0.31778318
-0.011462403 0.08574083 -0.030275365 0.25728422 0.021437662 -0.0824197 0.1030507 -0.17639421
0.0059180832 0.20489873 0.08405195 0.18237743 0.17318521 0.1863357 -0.074989006 -0.32926306
-0.08131531 -0.2811728 -0.027858566 -0.09223871 0.04544056 -0.2933522 0.07225114 -0.122063234
0.059495505 -0.22244805 0.052559037 0.2696489 0.17754863 0.19185117 -0.16941307 0.15774745
00000000: 7f2e ffbd 0323 c23e f630 6fbc c680 92be
00000010: ffdc 393e 7de0 0f3e 18c4 ecbd afbe 9b3e
00000020: 4fc9 6a3c f040 e13d e144 c33c c44c 86be
00000030: 07f4 8abd 12a6 53be bdec c2bd 59c3 e43d
00000040: ec35 0e3c 97e8 f93e 8e88 dc3d fd4a d73e
00000050: 51df b53d a156 9abe 4cfe 25be 6c1b 97be
00000060: 64f1 753d 4966 7cbe 8e06 5fbe 5f81 c23d
00000070: 98f9 54bc c42b a3be 03d8 c2bd 05ce c1be
00000080: e2b3 e1bd be65 83be 6426 35be 0a06 1a3e
00000090: 61ba 27be dd11 ddbe db87 2bbd 0942 683e
000000a0: 890e 25bb 56bc 803d 5675 e43d 7ebd 71be
000000b0: 3d27 343e 9634 8cbe e707 7abe ef98 8b3e
000000c0: 106f 05bd dd0e 91be f206 cdbd bf40 bbbe
000000d0: 92ab 233e 4ef9 0e3e b7b8 193e 6957 d53e
000000e0: 2a79 303d a758 38be 4284 f4bd 330a dfbe
000000f0: 800d bcbd dc4a 013f 535c 4f3e e840 a7bd
00000100: 9794 cfbd d854 81be 2e47 6bbd 779c 7e3c
00000110: 7545 92bd b083 493e f805 bfbc 355a 8fbe
00000120: 0667 febc ac86 2f3e 1715 113e 738c 02bf
00000130: 1c85 efbc 8460 d7be 4fdd 33bd e461 92bd
00000140: 48a1 983d d2ef 57be 245b b73d 936d 8b3e
00000150: c411 4a3e 4f48 983d 50c7 3cbb eda7 dbbe
00000160: ee69 93bd 3751 8d3e a1b6 843c 8fbc 56be
00000170: a84c 19be f7f2 5c3d 8bb3 64bd 7ab4 a23e
00000180: cecc 3bbc e398 af3d 0b04 f8bc c2ba 833e
00000190: 099e af3c a9cb a8bd 3f0c d33d afa0 34be
000001a0: 7bec c13b f9d0 513e 6e23 ac3d 26c1 3a3e
000001b0: 7757 313e c9ce 3e3e d693 99bd 2b95 a8be
000001c0: a488 a6bd e2f5 8fbe a637 e4bc a6e7 bcbd
000001d0: e11f 3a3d 4232 96be 68f8 933d 4afc f9bd
000001e0: 8fb1 733d 6cc9 63be 2548 573d 6c0f 8a3e
000001f0: 4fcf 353e a274 443e 9f7a 2dbe 8c88 213e

sequential/dense_1/BiasAdd/ReadVariableOp:0 f4 [2]
-0.013757459 0.040160384
00000000: f766 61bc 377f 243d

sequential/dense/MatMul/ReadVariableOp:0 f4 [13, 64]
0.185515 0.03846585 -0.157779 0.34781858 -0.0044129984 0.43322667 -0.22866808 0.060095716
0.38735238 0.2256111 0.32073992 -0.25168917 0.32454902 0.30333734 -0.37810317 0.16221425
-0.040682934 0.30795214 0.19564268 -0.28265184 -0.14119656 -0.19621134 -0.14511435 0.12983294
0.16108876 0.08253217 0.31927824 -0.11668138 -0.024979915 -0.12526923 -0.15179983 -0.04001735
0.037487816 0.060341146 -0.34650117 0.020072618 -0.21140054 -0.28219968 0.6035145 0.05365044
0.022356205 0.052240897 0.14222984 -0.113509 -0.08122531 0.062443163 0.009164 0.24710433
-0.057055417 0.31548634 -0.32299438 0.046292324 -0.14350918 0.3196536 -0.38788024 0.1580306
0.26012883 0.24535078 -0.13366917 0.21093398 0.07690224 -0.22895235 0.24118762 -0.31825918
0.20083325 0.1889964 0.26354593 0.01185143 0.13558072 -0.26701334 -0.09481546 -0.18605132
0.16744892 0.10838166 0.16266327 -0.05679257 -0.07465215 -0.061845623 0.0808369 0.04849247
-0.12702958 -0.04778367 0.2668746 -0.117421865 -0.08460114 0.22971296 0.04558115 0.19142565
-0.15563205 -0.15821493 0.019248134 0.13058218 -0.12853351 -0.40794078 0.12965298 0.015162971
0.28825092 0.050250456 0.0134930825 -0.26813334 0.3700136 0.067605786 -0.1732359 0.14672527
-0.20889375 0.1577429 0.12037264 0.33394212 0.34507555 -0.31304508 -0.18396983 0.046432957
-0.3506618 -0.14774968 -0.16087483 -0.13219287 0.15852803 -0.32888287 -0.15384541 -0.28933918
0.28703326 0.34447032 -0.38247058 -0.28707218 -0.07001958 0.12010683 0.13391717 0.15417024
0.17450775 -0.0138208615 0.18902676 0.2906411 -0.17753299 0.10960222 -0.12925209 -0.11595543
-0.2648893 0.38356286 -0.12328215 -0.21158233 -0.0894531 0.06523184 0.09252203 0.0004259125
-0.08213692 0.016761905 -0.41281158 0.27557972 0.0087834755 -0.17407851 -0.06108831 0.17050292
0.22240123 0.06682143 -0.049261425 -0.26737073 0.07888854 0.0063950764 -0.18190178 0.009905779
-0.06460863 0.35017943 -0.20015933 -0.15560813 0.40389952 -0.23574592 0.03300822 0.032814663
-0.04320353 0.36134923 0.16438998 1.0256237 0.34812865 -0.28229406 -0.04086865 0.095472686
-0.28175062 0.4453861 -0.0495957 -0.011453873 0.49737233 -0.23616254 0.11636902 -0.0373743
-0.15746142 0.03711758 0.15350221 -0.14913973 0.25693738 0.32273006 -0.04988107 -0.19622713
0.09953082 -0.019381808 0.34658748 -0.0445512 -0.0389546 -0.11677317 -0.32567596 -0.08765478
0.16638073 0.41571724 0.07067857 0.12046282 0.18655278 0.18541189 -0.14599946 0.23422791
0.21114886 0.1673601 0.26772246 -0.40505183 -0.1225833 -0.26415408 0.26714042 0.34298804
-0.24490583 0.14527589 0.07511395 0.09859786 -0.15537013 -0.07907131 -0.09843744 -0.1301679
-0.26682425 -0.096734725 -0.19289105 -0.10076936 -0.32038447 -0.2606813 0.18037485 -0.06421125
0.3724886 -0.33287808 0.1451476 0.0077250553 -0.078113526 -0.1065091 0.10741814 0.004703455
0.15695345 0.19130266 0.0939681 0.119455025 -0.20115615 0.29821658 -0.15729801 0.31993395
0.16440693 0.11690819 -0.1787148 0.11677407 0.12316185 0.2393735 0.1552836 -0.24430867
00000000: a5f7 3d3e 5e8e 1d3d d190 21be 4715 b23e
00000010: ea9a 90bb e3cf dd3e f727 6abe ed26 763d
00000020: 0d53 c63e 9906 673e 0638 a43e 67dd 80be
00000030: 4a2b a63e 084f 9b3e bd96 c1be 7e1b 263e
00000040: 26a3 26bd e7ab 9d3e 8e56 483e beb7 90be
00000050: d595 10be a0eb 48be db98 14be edf2 043e
00000060: 74f4 243e a006 a93d 7078 a33e a6f6 eebd
00000070: aea2 ccbc 9446 00be 6a71 1bbe 3ce9 23bd
00000080: d38c 193d 4728 773d 9a68 b1be 556f a43c
00000090: 6279 58be 7a7c 90be ed7f 1a3f 90c0 5b3d
000000a0: 5c24 b73c 8dfa 553d b3a4 113e 6877 e8bd
000000b0: 7559 a6bd 67c4 7f3d 9a24 163c eb08 7d3e
000000c0: f1b2 69bd 6d87 a13e 855f a5be 059d 3d3d
000000d0: 12f4 12be a3a9 a33e 3d98 c6be c6d2 213e
000000e0: 9b2f 853e 3c3d 7b3e 92e0 08be 14ff 573e
000000f0: ec7e 9d3d 7c72 6abe e3f9 763e def2 a2be
00000100: 3ba7 4d3e 4688 413e 7eef 863e 802c 423c
00000110: acd5 0a3e f9b5 88be 9c2e c2bd 3d84 3ebe
00000120: bb77 2b3e 34f7 dd3d 3391 263e 539f 68bd
00000130: 3ae3 98bd d651 7dbd d18d a53d 0aa0 463d
00000140: 0b14 02be cfb8 43bd caa3 883e e07a f0bd
00000150: 5d43 adbd e039 6b3e 4db3 3a3d 1605 443e
00000160: 025e 1fbe 1803 22be 43ae 9d3c 56b7 053e
00000170: 4a9e 03be 9ddd d0be c0c3 043e 1c6e 783c
00000180: a095 933e 6cd3 4d3d 1712 5d3c c648 89be
00000190: 6c72 bd3e e774 8a3d c064 31be 263f 163e
000001a0: 3ee8 55be 5b87 213e ee85 f63d 76fa aa3e
000001b0: bead b03e 7247 a0be 9662 3cbe 7c30 3e3d
000001c0: f289 b3be b14b 17be 5fbc 24be 915d 07be
000001d0: 2c55 223e 5663 a8be a789 1dbe 4424 94be
000001e0: 06f6 923e 6a5e b03e 2fd3 c3be 20fb 92be
000001f0: 6d66 8fbd 92fa f53d 9521 093e cede 1d3e
00000200: 29b2 323e e570 62bc 3b90 413e e9ce 943e
00000210: 35cb 35be 2177 e03d a95a 04be 0a7a edbd
00000220: 929f 87be 5a62 c43e 5a7b fcbd 0aa9 58be
00000230: 3033 b7bd 4598 853d 317c bd3d 024d df39
00000240: 6737 a8bd 4350 893c 0a5c d3be c918 8d3e
00000250: 91e8 0f3c a341 32be bc37 7abd 5198 2e3e
00000260: 26bd 633e add9 883d 59c6 49bd d1e4 88be
00000270: 5190 a13d ca8d d13b 7644 3abe d94b 223c
00000280: 8851 84bd b84a b33e 91f6 4cbe bd57 1fbe
00000290: ebcb ce3e 6167 71be a133 073d ab68 063d
000002a0: 2ff6 30bd c402 b93e d955 283e a347 833f
000002b0: eb3d b23e d988 90be e365 27bd 2f87 c33d
000002c0: 9e41 90be a609 e43e dc24 4bbd 06a9 3bbc
000002d0: 96a7 fe3e 98d4 71be e152 ee3d cb15 19bd
000002e0: 913d 21be 9b08 183d af2f 1d3e 16b8 18be
000002f0: 4c8d 833e e03c a53e 1850 4cbd c4ef 48be
00000300: d1d6 cb3d 99c6 9ebc ea73 b13e 527b 36bd
00000310: dc8e 1fbd c626 efbd 00bf a6be 5984 b3bd
00000320: b65f 2a3e e4d8 d43e edbf 903d 36b5 f63d
00000330: b107 3f3e 9ddc 3d3e e280 15be 71d9 6f3e
00000340: 6837 583e 7260 2b3e eb12 893e f462 cfbe
00000350: f40c fbbd 343f 87be a1c6 883e 219c af3e
00000360: 98c8 7abe 34c3 143e 58d5 993d aded c93d
00000370: 5919 1fbe 24f0 a1bd 9299 c9bd bc4a 05be
00000380: 309d 88be db1c c6bd 3b85 45be 2b60 cebd
00000390: 6f09 a4be 0578 85be 2fb4 383e 3081 83bd
000003a0: d3b6 be3e ff6e aabe 93a1 143e 7622 fd3b
000003b0: fcf9 9fbd 7121 dabd 0bfe db3d 711f 9a3b
000003c0: 68b8 203e d8e4 433e 5972 c03d d6a4 f43d
000003d0: e1fb 4dbe d8af 983e bb12 21be 62ce a33e
000003e0: 4a5a 283e 906d ef3d 0301 37be 3e27 ef3d
000003f0: 483c fc3d 541e 753e aa02 1f3e 0d2c 7abe

sequential/dense/BiasAdd/ReadVariableOp:0 f4 [64]
-0.6556772 0.00034409185 -0.052604184 -0.14898388 -0.083275594 0.015911408 -0.24836025 0.18049677
-0.11021554 -0.37906536 0.01186535 -0.24343862 0.03759462 0.09756539 -0.22577196 -0.022997532
-0.23450251 -0.033612445 -0.037024513 -0.04852828 -0.19599424 -0.18109508 -0.08165133 0.020901999
-0.06702732 -0.13656667 -0.04931952 0.04593595 0.13968724 -0.6975663 0.045023534 -0.020064076
-0.119359545 -0.164297 -0.07668315 -0.4018099 0.03445459 0.018581485 -0.23167664 -0.17159288
-0.3347289 0.26367915 -0.084581606 0.1468151 -0.20371707 0.1329842 0.15456608 -0.19726425
-0.21045923 -0.093175195 -0.08581731 -0.01609468 -0.053756267 0.022719597 0.27062538 -0.39461792
-0.29926807 0.19648215 0.09001952 -0.19116704 -0.029069487 -0.171421 -0.023234965 0.15262923
00000000: 76da 27bf 3a67 b439 7c77 57bd 3b8f 18be
00000010: 658c aabd a458 823c 2652 7ebe 25d4 383e
00000020: afb8 e1bd db14 c2be e366 423c f947 79be
00000030: d1fc 193d 5dd0 c73d c430 67be 5265 bcbc
00000040: 6d21 70be 34ad 09bd 04a7 17bd 97c5 46bd
00000050: b7b2 48be fd70 39be d038 a7bd ab3a ab3c
00000060: 9f45 89bd 22d8 0bbe 4403 4abd 5627 3c3d
00000070: 2c0a 0f3e b493 32bf 996a 383d 6b5d a4bc
00000080: c772 f4bd 793d 28be 0e0c 9dbd 07ba cdbe
00000090: 4220 0d3d 3338 983c a43c 6dbe 0bb6 2fbe
000000a0: 9661 abbe f400 873e 1f39 adbd b356 163e
000000b0: 359b 50be 032d 083e 9246 1e3e a4ff 49be
000000c0: a082 57be a3d2 bebd fcc0 afbd fed8 83bc
000000d0: 882f 5cbd 731e ba3c 698f 8a3e 5c0b cabe
000000e0: aa39 99be 9e32 493e 275c b83d 4bc1 43be
000000f0: 2223 eebc fd88 2fbe 4157 bebc d64a 1c3e
